Lab_11_Tensor/mnist_cnn_model.onnx (onnx, 903143 bytes, 8 tensors)

sequential_1/dense_3/MatMul/ReadVariableOp:0 f4 [128, 10]
000000 e1 9f 71 3d e4 e6 c0 bd dc 03 ab 3d c8 f6 e2 bd
       0.058990363 -0.09419039 0.083503455 -0.11082226
000010 95 f0 31 bd dc 05 05 3e 5d 75 18 bd 3a 6e 91 bd
       -0.043442328 0.12990516 -0.0372213 -0.07101102
000020 2f 9b 30 3e a9 3e cd bd d5 48 d8 3b e1 7d 32 be
       0.17246698 -0.10021717 0.006600479 -0.17430831
000030 0b d0 3c 3e 52 bc 37 3e 33 06 c7 3d f7 15 24 3c
       0.18438737 0.17942932 0.09717979 0.010015002
000040 bf 6a 27 be 08 63 d0 3d f6 d6 00 be 30 37 48 bd
       -0.16349314 0.10175139 -0.12582001 -0.048880756
000050 0e ef ca 3d 9f 9d 1c 3e 0a cc 41 bd e9 6a 58 be
       0.09908877 0.15294503 -0.047313727 -0.21134533
000060 39 e6 a9 3d 32 28 38 3d 32 69 5e 3e d2 88 21 be
       0.082958646 0.04496021 0.21719816 -0.15774849
000070 c3 95 e3 3d 1b 52 8b 3d 4d 8c 17 be 8f 65 0b be
       0.11112549 0.0680277 -0.14799614 -0.1361296
000080 40 10 21 be 0d 34 9f 3d e6 93 37 3e 11 bc b9 bd
       -0.15728855 0.077736 0.17927513 -0.09069074
000090 4a 05 d1 bd a3 d6 0f 3e cf e6 ae 3d 29 e0 79 bd
       -0.10206087 0.14046721 0.08540117 -0.06100479
0000a0 92 aa 38 3d 45 1b fa 3d a6 f9 07 3e 22 e0 60 be
       0.045084544 0.122122325 0.13278827 -0.219605
0000b0 46 81 14 be 9f ac 60 3d 66 88 f6 3d fd 39 05 3d
       -0.14502439 0.054852124 0.12037735 0.032526005
0000c0 83 79 d5 bd 4a ae 90 be bb 50 64 be 6e a9 63 bd
       -0.10423567 -0.28257972 -0.22296421 -0.055581503
0000d0 56 9a 33 bd c5 14 08 3e e2 ad 0c bc 63 5f 56 3e
       -0.043848358 0.13289173 -0.008586379 0.20934825
0000e0 ef e6 69 be f4 e4 c3 3d 26 1f 91 bd 18 95 be 3d
       -0.22842 0.09565154 -0.07086019 0.09305781
0000f0 7a 04 15 3e 9f 1f 12 be 49 97 e2 bd fc f3 e6 3d
       0.14552489 -0.14269875 -0.110640116 0.11277005
000100 c6 74 ef bb a2 38 9a 3d 85 3f 3c 3d 6d ec fa 3d
       -0.0073076217 0.07530333 0.045959014 0.12252126
000110 40 5b 0f 3e c5 02 87 3d 1d 15 2d be fd 5b 39 be
       0.13999653 0.06592325 -0.16902585 -0.18101497
000120 13 44 1a be 13 b8 84 be b1 78 b7 bd 69 dd aa 3d
       -0.15065031 -0.25921687 -0.08958567 0.08343012
000130 95 01 98 3b 6a e5 80 be 9a 26 5a bc a9 27 ca 3c
       0.0046388605 -0.2517503 -0.013314867 0.024677115
000140 a6 ea 31 3e 62 69 c2 bd 35 92 38 bc fb 84 b8 3d
       0.17374668 -0.094927564 -0.011265327 0.09009739
000150 8a d2 02 3e b1 bc 29 3d be 54 d0 bd df c6 7b be
       0.12775627 0.041439716 -0.10172413 -0.24587582
000160 2a c0 a4 3d da b4 6c 3e d5 97 a2 3d ef a5 ea 3d
       0.08044465 0.23115864 0.07939116 0.114574306
000170 d3 37 0c bc 2a d1 fe bd 08 28 5e 3d f3 a1 10 3e
       -0.008558231 -0.12442239 0.054237396 0.14124279
000180 5f e8 a9 3d bc 42 97 3d 1e 60 9a bd b0 86 94 bc
       0.082962744 0.073857754 -0.07537864 -0.01813063
000190 7b 04 cb bd 54 dd d0 bd 4b 54 1f be bd 64 63 3d
       -0.09912964 -0.10198465 -0.15559499 0.055515993
0001a0 14 6a 41 bd cb f0 83 3d f3 33 a2 bc 18 7e 47 3e
       -0.047220305 0.06442412 -0.019800162 0.19481695
0001b0 5d c0 49 bd ad 38 56 3d 1a 40 b8 3d 0d f0 70 3e
       -0.049255718 0.052300144 0.089966014 0.23529072
0001c0 9a 48 6d 3e d3 b6 e1 3d eb ee 4c 3e de 38 b2 bd
       0.23172227 0.11021199 0.20013015 -0.08702253
0001d0 5c db 8d bd 91 7d 5a 3e 45 a1 04 3e d5 54 9f bd
       -0.06926605 0.21336962 0.12952144 -0.07779852
0001e0 3e a5 1d 3e 4a bd 06 be 1f 64 22 be 5c 03 72 be
       0.15395066 -0.13158146 -0.15858506 -0.23634094
0001f0 2d ee ed 3d 00 d6 1a be 73 05 b5 bd 5a d5 62 3d
       0.11617694 -0.15120697 -0.0883893 0.05537925
000200 7d 45 f4 3d 60 11 3d 3d 46 ef e8 bc 65 cf 4d bd
       0.11927316 0.04615915 -0.028434407 -0.050246615
000210 a6 48 9e 3d 35 66 46 be 0d f5 60 bd c7 62 a2 bd
       0.077287 -0.19374926 -0.0549212 -0.079289965
000220 08 16 76 3d 1a f0 18 3e 41 c1 ac bd 25 4f 21 3e
       0.060079604 0.14935341 -0.08435298 0.15752847
000230 99 d4 47 bd 2e f6 51 3e cc 88 83 3d a2 95 45 3e
       -0.048786733 0.20504066 0.06422576 0.19295362
000240 e0 e7 38 3e 99 bf 17 be ef 83 d2 bd ee bc 46 3e
       0.18057203 -0.14819182 -0.102790706 0.19408008
000250 f5 d9 6f be b0 47 81 3d fe da 9f 3c 44 3f 98 bd
       -0.23422988 0.063125014 0.019513603 -0.07433942
000260 9f 1e 65 bd cd 73 1c 3b 65 3a 97 bd 81 87 5c be
       -0.055937406 0.0023872734 -0.07384185 -0.21536066
000270 12 f9 27 be 7b 83 58 bb 67 f2 20 3e 97 44 51 3e
       -0.16403607 -0.0033037353 0.15717469 0.20436321
000280 f2 0d 4e be 48 a6 49 3e 97 18 9c bc 3c 29 bd 3d
       -0.20122507 0.19692338 -0.019054694 0.092363805
000290 8e 98 56 3e 35 14 41 3e 5e a8 b7 3d 8c c8 d7 3d
       0.20956632 0.18855365 0.0896766 0.10536298
0002a0 9e 5f 0b 3e 38 ea 38 be c7 54 b9 3b 37 a9 68 3b
       0.13610694 -0.18058097 0.005655858 0.003550125
0002b0 75 0e 50 3e fa 18 e6 3d 94 ff 80 be 1f d2 00 bd
       0.20318015 0.11235233 -0.2519499 -0.031450387
0002c0 6e 88 97 3d 7d 26 4a 3e f6 5a e1 bd 6a 0b 48 be
       0.07399069 0.19741245 -0.110036775 -0.19535604
0002d0 d2 ef 18 3d 5f 84 b2 bc 5e 1a fd bd 76 56 01 3e
       0.037338085 -0.021791635 -0.12358545 0.12630638
0002e0 d4 c0 30 bd e8 e0 52 3e 8e 4a 71 bd 90 26 92 3d
       -0.043152645 0.20593607 -0.05890899 0.071362615
0002f0 b2 c6 59 be 5f e4 92 3d 25 43 0d 3e 94 68 73 be
       -0.21267202 0.071724646 0.13795145 -0.23770362
000300 b4 a4 38 be 31 b4 4b be 79 06 4b 3e bd ff f2 3d
       -0.1803158 -0.19892956 0.19826688 0.118651845
000310 dc 4c 0a 3e 05 91 1d 3e 1a d5 46 be 83 c3 22 3e
       0.13505882 0.15387352 -0.1941723 0.15894894
000320 c2 d7 ea 3d a2 94 62 3e 10 b1 4b bd d9 ac 0e be
       0.11466934 0.22127011 -0.049729407 -0.13933124
000330 ef 21 44 be d7 b2 b4 3c a7 f0 22 3e 47 d3 eb bd
       -0.1915357 0.022057934 0.15912114 -0.11514907
000340 62 0b ad bd f1 5f 4e 3d 27 dc 26 3e 0f ad 22 be
       -0.08449437 0.050384466 0.16294919 -0.15886329
000350 1f 6c 32 be 84 be 29 bc 07 1f 04 bd 0f a1 9f bd
       -0.17424057 -0.010360364 -0.032256152 -0.07794391
000360 12 b8 cb 3c ae 5d 2f be 59 c5 4d bc 06 95 a9 bd
       0.024868045 -0.1712558 -0.012559258 -0.08280377
000370 03 a5 0d 3e 23 da 84 bd e4 1d 2a bc ee 16 10 be
       0.13832478 -0.06486919 -0.010383103 -0.14071247
000380 31 b5 12 be ab 6b 17 be 1f da 73 bd bd f3 90 3c
       -0.14326932 -0.14787166 -0.05953419 0.017694348
000390 fa 5b 33 3d ac a7 21 be 34 04 7e bc ca 6c 98 bd
       0.043788888 -0.15786618 -0.015503932 -0.07442625
0003a0 3b d6 cc bd 14 ab f7 3d 7d 6b ff bd 98 17 ad 3d
       -0.10001799 0.120931774 -0.12471674 0.08451766
0003b0 96 fc c6 3d 0d fa 5a 3c 4f b7 52 be e5 11 50 bc
       0.09716146 0.013365281 -0.20577739 -0.012699579
0003c0 d3 3d 50 3e 62 9f 4b be 20 78 07 be 71 1a 79 3d
       0.20336084 -0.19885018 -0.13229418 0.060816232
0003d0 67 8d 81 be 6b f5 ec bd 90 60 71 be 6f d2 a8 bd
       -0.25303194 -0.11570247 -0.23571992 -0.08243262
0003e0 ce 21 91 ba bb a4 b8 3c 51 cd 3f 3e ba f4 25 be
       -0.0011072697 0.022539487 0.18730666 -0.16206637
0003f0 b8 15 58 bd 2b 46 83 bd a7 1e 01 3d 2a 65 82 3c
       -0.052755088 -0.06409868 0.031523373 0.01591738

sequential_1/dense_3/BiasAdd/ReadVariableOp:0 f4 [10]
000000 56 fa 54 3b aa ba ec 3c 68 aa 41 3c 82 db c6 bc
       0.0032497845 0.028897602 0.011820413 -0.024274591
000010 78 78 64 3b a9 04 3e bc 6f 5a cc bc e0 9e 88 3b
       0.0034861844 -0.011597791 -0.024945466 0.00416933
000020 30 2d f5 3b 1d ca 55 bb
       0.0074821934 -0.003262169

sequential_1/dense_2/MatMul/ReadVariableOp:0 f4 [1600, 128]
000000 d7 56 8d bc 6d 46 ce 3d d1 dc 0b bd c1 c8 69 3d
       -0.017253323 0.100720264 -0.034146134 0.05707622
000010 b3 77 27 bd b9 dc 08 bd 7a 50 97 3b 3c fe 50 3b
       -0.04088564 -0.033413623 0.004617748 0.0031889817
000020 90 a9 d2 bc 0b 1d cd bc 6f e4 82 bd ce 7d 18 3e
       -0.02571562 -0.025038263 -0.063912265 0.1489174
000030 67 d1 41 bd 4f 84 46 bd 51 26 ad 3d ba d5 09 bd
       -0.047318842 -0.048466023 0.08454574 -0.03365109
000040 d6 8b a2 bd bc d3 e9 3d e5 d1 66 bd 5a 0e 3c be
       -0.07936828 0.11417338 -0.056352515 -0.1836485
000050 24 af 96 bd cd 5e 1e bd fe 83 0b 3d 38 3f 3b bc
       -0.07357624 -0.038664628 0.034061424 -0.011428647
000060 97 b9 73 3d bc 07 bb bc 20 d7 60 3c 07 9f ab 3d
       0.059503164 -0.022830836 0.013723165 0.083799414
000070 6e 8d 66 bd ad 2f 4b bd 28 39 00 3e ff cc 64 bb
       -0.05628722 -0.049606014 0.12521803 -0.0034912226
000080 0b 59 5c bd da 8b a3 3c 21 74 1f bd f9 98 e6 bd
       -0.053795855 0.019964147 -0.03892911 -0.11259646
000090 73 cc cb 3d a3 40 d2 3d 7d cd 08 bd 91 f5 7f bc
       0.09951105 0.10266235 -0.033399094 -0.015622512
0000a0 62 a9 5f bd 7f 2e 3f 3d 92 0f 8d 3d aa ec ee 3d
       -0.054604895 0.0466752 0.068877354 0.11666234
0000b0 de 54 47 bd 83 a8 27 bd 41 31 31 3d 51 4d da bb
       -0.04866492 -0.04093219 0.043259863 -0.006662049
0000c0 51 d1 23 3e 35 18 ec 3b 54 39 e9 3c 6f 11 11 3c
       0.15997817 0.007205034 0.028469719 0.008854254
0000d0 29 aa b5 3d ff 75 71 bd 52 5d 80 3d 68 6f 3c bc
       0.08870346 -0.05895042 0.062677994 -0.011501171
0000e0 fd 42 07 3e 60 f5 ce 3c 16 14 d6 3c d6 3a 94 bb
       0.13209148 0.025263488 0.026132625 -0.0045236154
0000f0 c8 39 b4 bc 7a 07 e9 3c 13 33 f2 3d 00 87 c7 3c
       -0.022000208 0.028445948 0.11826148 0.024356365
000100 f8 c8 04 3d 7d 77 30 3d 43 eb 00 bd 9e 81 92 bc
       0.03241822 0.043082703 -0.031474363 -0.017884072
000110 de 5a 29 bd e1 00 89 bc 71 51 18 3d 2d 13 cb bd
       -0.041346423 -0.016724052 0.037187044 -0.09915767
000120 68 dc 02 3d 09 b6 b7 bd 25 57 50 3b 5c c2 8f 3d
       0.031948477 -0.08970267 0.0031790223 0.07019493
000130 5a 27 97 3c df 8d a7 bd 0b d0 a3 3c fc f8 9d bc
       0.018451381 -0.08181357 0.019996664 -0.019283764
000140 5c 11 f1 3d ee ca ae bc 62 06 8a bd 6e 62 15 3d
       0.11770889 -0.021336999 -0.06739499 0.036470823
000150 23 8b 33 3d ae cc 35 3d b0 d8 38 bd 13 72 27 bc
       0.043833863 0.04438465 -0.045128524 -0.0102200685
000160 d2 ad 27 3c 2e 76 98 bc 46 b6 1b 3c ef bc 40 3d
       0.010234313 -0.01861104 0.009503907 0.04705518
000170 05 d1 55 3d 89 bd ae 3d 66 2e cc bb fb 8f 33 bd
       0.05220129 0.08532245 -0.006231117 -0.043838482
000180 07 c6 63 bd fb 71 2a 3d af b5 26 3e fc 59 68 bc
       -0.055608775 0.041612606 0.16280244 -0.01418161
000190 cf 1c d5 bb 26 03 bd 3c a5 1e 5c bc be 61 3f 3d
       -0.0065036784 0.02307279 -0.013435041 0.046724074
0001a0 fa 35 45 3b 79 7b 56 bc ca 4a ba bd a0 3e 33 3e
       0.0030091987 -0.013090962 -0.09096296 0.17504358
0001b0 77 08 a8 3d 7a 6a 30 bd fa 06 05 bd 50 3c 4a 3c
       0.082047395 -0.043070294 -0.032477356 0.012343481
0001c0 af 81 a0 bc e9 a9 2e bd 3e 63 2c 3d 53 67 6a 3d
       -0.019593088 -0.042642508 0.042086832 0.057227444
0001d0 c9 99 cd bd 7b dd 8f bb 41 66 59 3a c9 ff 00 bd
       -0.10039098 -0.004390416 0.000829313 -0.031493936
0001e0 8d e3 84 3d 9e 91 d3 bc f4 9b 84 bc 87 31 2f 3d
       0.06488714 -0.025826272 -0.016187645 0.042771842
0001f0 72 14 15 3b db 4a ec bc 55 92 04 be 73 e6 ea b9
       0.0022747782 -0.028844288 -0.12946446 -0.00044803656
000200 3e 92 0b 3b a6 0a 6d 3d f6 7b f7 bc fa d6 f3 3c
       0.0021296884 0.057871483 -0.030210476 0.029765595
000210 c0 b1 6c 3d ed 21 4e 3d b0 39 3e 3d 17 be 0c bd
       0.057786703 0.050325323 0.046441734 -0.03436097
000220 4d 4b c6 bd 2e 40 1b bd 00 93 cd bc 66 31 a5 3d
       -0.09682331 -0.037903003 -0.02509451 0.08066063
000230 a6 51 87 bc 12 24 31 bc 3c b4 05 3d f5 b7 1c bd
       -0.016518425 -0.0108118225 0.032642588 -0.038261373
000240 0a b2 00 3d ff dd b3 3c 8c 80 c9 bd 34 1a ce 3c
       0.03141979 0.021956442 -0.098389715 0.025158979
000250 0c 27 1a 3c 19 71 ad bd b6 5c 84 bc 0b d6 1e 3d
       0.009408724 -0.08468837 -0.01615749 0.038778346
000260 1c 5e 29 bd c1 be 89 bd a4 a7 93 3d 4a c3 cb 37
       -0.041349515 -0.067258365 0.07209709 2.4290424e-05
000270 c3 0b 8a 3d dc 7a 54 bc dc 9e 56 bd 6e b3 de bb
       0.067405246 -0.012968745 -0.052397594 -0.006796292
000280 54 f7 cb 3c 3f 60 6d bd 06 28 6e bb 34 81 34 bc
       0.024898209 -0.057953116 -0.0036339774 -0.011017133
000290 1d 1c 00 bd e1 19 a8 3d e2 75 b6 3b 24 c2 52 3c
       -0.03127681 0.08208061 0.005568252 0.01286367
0002a0 d9 ac 2f 3d c6 33 3a 3d e3 2d 9e bd 5f 52 a8 3d
       0.04288945 0.04545953 -0.07723596 0.08218836
0002b0 f1 43 82 3c dc 34 a0 bb bc b5 50 3d 06 e4 45 bc
       0.015901538 -0.004889114 0.050954565 -0.012078291
0002c0 90 1e 2c bd 24 5e 16 bd 66 87 87 3c ed ec c1 3d
       -0.042021334 -0.036710873 0.016544055 0.09469018
0002d0 14 6a a2 b9 f9 4e 34 bd d6 89 21 bd a7 4e ed bc
       -0.00030978082 -0.044020627 -0.03943809 -0.028968168
0002e0 79 af 8a 3c 69 3f 15 3d 24 f3 71 3c 2e 5d 27 3d
       0.016929375 0.036437426 0.014767442 0.040860347
0002f0 ef 40 f1 bc ea f6 35 bc 2a 9f 60 bd 48 6b 86 bc
       -0.029449908 -0.011106232 -0.05483929 -0.016408578
000300 73 64 69 3c ea 45 d4 3b 25 d8 b3 3c bd f3 1f 3c
       0.01424514 0.006478061 0.021953652 0.009762702
000310 36 2f c8 bc e3 83 3f 3d 02 10 0f 3d ac a3 a7 bd
       -0.024436574 0.046756636 0.034927376 -0.08185515
000320 32 8f 92 bc 88 32 4d 3d 17 d5 6a 3c 25 a7 c1 3d
       -0.017890546 0.05009702 0.014333031 0.094557084
000330 61 fe 03 3d 44 03 3a bd 0b 23 b9 bc c1 76 66 bc
       0.032225017 -0.04541327 -0.022599718 -0.014066399
000340 ef ea 62 3c ac 11 07 bd ed 7b ad bc 3f b3 52 bd
       0.013849958 -0.032975838 -0.021177256 -0.051440474
000350 dc 16 c4 bc d2 17 d7 bd 16 52 06 bd eb 81 50 bd
       -0.023936681 -0.1050259 -0.032793127 -0.05090515
000360 48 67 0d 3d 75 0b 98 3c 21 12 d8 bb 49 64 87 3c
       0.034522325 0.01856015 -0.006593958 0.016527312
000370 1e f2 6f bd 9b 14 c4 3d 7b b8 6a bc 00 46 13 ba
       -0.05858051 0.09574243 -0.01432621 -0.0005618036
000380 8a 8f 02 bd e1 2c 0b 3c e4 2b c4 bc 39 da 26 3d
       -0.03187517 0.008494587 -0.02394671 0.040735457
000390 50 9f eb 3c 8c c7 2d bd 13 66 19 3c 44 a7 d7 bc
       0.02876249 -0.04242663 0.009362715 -0.026324876
0003a0 4c 2d ef 3c 49 cc 2d 3b a5 76 0a bc e8 1a e8 bb
       0.029196404 0.0026519469 -0.008451139 -0.0070832856
0003b0 48 7f 67 3d b9 81 09 3d d8 4a c6 3c 01 99 98 bd
       0.05651787 0.03357098 0.02420561 -0.07451058
0003c0 65 82 5f bd 6e 1e 9a 3a b9 48 39 3c 98 ac b8 3b
       -0.054567713 0.0011758336 0.011308842 0.005635809
0003d0 03 6d 90 bd 6a 58 2f bd c6 80 ab bd 09 65 89 bd
       -0.07052042 -0.042808928 -0.08374171 -0.06708724
0003e0 bb c0 f3 bc 5a c5 9e 3c 66 11 33 3d c1 40 4d bd
       -0.029754987 0.019381214 0.043717764 -0.050110582
0003f0 a3 7b 4a 3d 2b 0b 91 bd 1e 9e cb bc 99 af f9 bc
       0.049434315 -0.07082208 -0.02485567 -0.03047924

sequential_1/dense_2/BiasAdd/ReadVariableOp:0 f4 [128]
000000 b9 19 05 bc f3 d7 30 bc 43 c1 e1 3c c2 50 c8 bb
       -0.008123809 -0.010793674 0.027557975 -0.0061131427
000010 7d f8 f6 3c a5 43 88 bb b7 13 e5 bc 66 3c 43 3b
       0.030147785 -0.0041584545 -0.027963502 0.002979064
000020 9d 74 aa bb 44 e8 1e bd 35 10 44 bc 8c 5c 6c 3c
       -0.0052018897 -0.038795725 -0.011966755 0.014426362
000030 5a 3e a8 3c a8 49 dc bb ca 28 1c 3c 1c 0c 0e 3c
       0.020537544 -0.0067226477 0.009531209 0.008669879
000040 45 d8 9c 3b 8b e2 3f 3c a5 34 30 bc 4a 7b 4d ba
       0.0047865235 0.011711727 -0.010754739 -0.0007838501
000050 76 5a 1b bb 4a 2a 19 bc 9c c3 cf bb 82 f9 60 bc
       -0.0023705042 -0.009348461 -0.006340457 -0.013731362
000060 b1 57 08 3c 92 dc 8e ba 0a 69 55 3c 8c 91 90 3c
       0.0083216885 -0.0010899475 0.013025532 0.017647527
000070 50 13 a0 3b 4c 0b 5b 3b 8b 4b 96 3b 4a 85 e7 bb
       0.0048851147 0.0033423482 0.004586642 -0.00706545
000080 20 ea d6 bb 22 fa 01 bc 2b d1 d8 3b 52 82 cb 3c
       -0.0065586716 -0.0079331715 0.0066167316 0.024842415
000090 65 c2 89 bc 52 df 82 3c 66 f7 61 3b 1f 12 39 bc
       -0.016816327 0.015975628 0.0034479736 -0.011295824
0000a0 57 48 09 bc 77 14 80 bc 6e 33 7a 3c f9 62 3a bb
       -0.008379064 -0.015634758 0.015271051 -0.002844034
0000b0 64 64 81 3c e5 75 4e bc ca 36 50 3c 72 1a 04 3c
       0.01579494 -0.01260135 0.012708375 0.008062946
0000c0 ae 66 a8 3b 7a 44 31 b9 a3 60 39 bd e4 22 70 3b
       0.0051391935 -0.00016905545 -0.045258176 0.003664189
0000d0 01 ac 43 bb c5 dc 27 3c b7 33 c3 bb 06 a6 d6 bb
       -0.002985716 0.010245507 -0.0059570926 -0.0065505533
0000e0 7d c3 51 bb 03 06 58 3c b5 a6 a8 bb c7 ab 14 3c
       -0.003200739 0.013185027 -0.005146826 0.009074158
0000f0 13 ea 38 3c 77 1a 8e bb 2d 17 48 3b f2 a2 34 3c
       0.011286276 -0.004336651 0.0030531392 0.011025177
000100 ce a3 8b bb 9e a3 9a 3c 51 fa 29 3c 9c 63 6c 39
       -0.0042614704 0.018876847 0.0103746215 0.00022543821
000110 39 e5 9e bb 5b 01 36 bb 5a 97 06 bc 05 bb 73 3c
       -0.004849103 -0.0027771804 -0.008214796 0.014876132
000120 ab b8 05 3c b1 12 62 3c fc 15 06 bc 11 53 5d 3c
       0.008161704 0.013798402 -0.008183952 0.013508574
000130 ae e5 cb bb d7 bf 00 3d 2a 97 44 3c 96 48 fe ba
       -0.0062224483 0.031432953 0.011998931 -0.0019400294
000140 5e 0b b7 3c 1f c2 99 3b 01 5b eb 3b 48 9c 04 bc
       0.022344287 0.0046923305 0.0071824794 -0.008093901
000150 35 03 a9 bb 1a b1 cc 3c cf d4 c9 bb 75 32 dd bb
       -0.005157853 0.024986792 -0.006159402 -0.0067503997
000160 db 26 87 bc 95 e2 ca bc 3f c1 07 bd a1 db 12 3b
       -0.01649802 -0.024766246 -0.03314328 0.002240874
000170 5f 9b b6 bb ef 0d 69 bc f1 12 fd 3c be 5b c8 bb
       -0.005572721 -0.014224513 0.030892821 -0.006114452
000180 cf c9 3a bc dd 2b c6 ba e3 da a9 3c ae 5e 4c 3c
       -0.011400654 -0.0015119273 0.020734256 0.012473745
000190 cf 9c d4 3b 43 61 c4 bc 10 3d 58 b9 f2 17 09 3c
       0.0064884196 -0.02397216 -0.00020622113 0.008367525
0001a0 05 b5 8e 3c 31 dc c5 3c 92 5b 85 bc 71 b1 19 3c
       0.017420301 0.024152847 -0.016279016 0.009380684
0001b0 9c 0d 90 3b 97 29 03 3d a6 52 ed bc 70 3f b3 3c
       0.0043961536 0.032022085 -0.028970074 0.021880835
0001c0 0e 59 b3 bb 85 a0 94 3c 7d 6d 68 bb 1b 1e 0d bc
       -0.0054732626 0.018142948 -0.003546565 -0.008613135
0001d0 d8 a7 89 ba 47 df 2b bc 0a fb bd 3c 9a 28 74 3b
       -0.0010502292 -0.010490245 0.023190994 0.0037255646
0001e0 fa b3 20 bb 2b 50 6f 3b 88 84 d6 bb ee 52 bb bb
       -0.0024521337 0.003651629 -0.0065465607 -0.005716673
0001f0 04 8a 23 3c 69 4d 84 3c 8c b0 42 bb 57 b1 9f bc
       0.009981636 0.016150193 -0.002970728 -0.019493742

sequential_1/conv2d_3/Conv2D/ReadVariableOp:0 f4 [64, 32, 3, 3]
000000 c0 23 d0 bc f9 81 8b bd fa c7 3f bd 7d d3 51 3d
       -0.025407672 -0.068119 -0.046821572 0.05122708
000010 db 2a fa bb 05 e0 d4 bc 7e b9 7c bb ff 98 39 bc
       -0.0076345033 -0.025985727 -0.003856271 -0.011327981
000020 77 95 00 bd 79 fe 61 3d ee 37 9f 3d 5e b8 f3 bc
       -0.03139254 0.055174325 0.077743396 -0.029750999
000030 ff fc 62 bd aa 20 ea bc 51 ea ee bb ea 66 53 bd
       -0.055417057 -0.028580029 -0.0072911163 -0.05161182
000040 90 31 8b bc ad 02 85 bd a4 b8 7d bd 21 e8 cf 3c
       -0.016991407 -0.06494651 -0.061943665 0.025379242
000050 55 aa 4c 3d 0c 5d b8 bd 9a 0c 04 3d 26 21 52 bd
       0.04996713 -0.09002122 0.03223858 -0.051301144
000060 00 97 2e bd b5 e4 90 bd 0d 07 91 bd b4 6f 43 3d
       -0.042624474 -0.070748724 -0.07081423 0.04771395
000070 f8 2f 83 bc 48 2d 92 bc 94 c9 4e 3d 62 04 76 bc
       -0.016014084 -0.017843857 0.05048521 -0.015015693
000080 1b fe 84 bc 1e 84 2c 3d f3 16 89 bc ca 60 8a bb
       -0.016234448 0.042118184 -0.016734576 -0.004222964
000090 a9 15 2c 3d 81 fe e1 bc 4c ee 46 3d c3 ed 3b bd
       0.042012844 -0.027587177 0.0485671 -0.045881044
0000a0 83 5a f9 3b 58 30 80 3c 72 de 10 3c 92 15 87 bc
       0.007609667 0.015648052 0.008842098 -0.016489778
0000b0 15 70 de 3c 1e af d4 bd 0d d3 d6 3d 7e 99 b0 3d
       0.027153054 -0.103849635 0.104894735 0.08623026
0000c0 8d d3 6e 3d ce 1f 39 bc 2e ad e5 bc a3 b7 6d bd
       0.05830722 -0.011299087 -0.02803668 -0.058036458
0000d0 d7 90 81 bd fc f2 c2 bd 24 58 ae 3d 36 87 21 3e
       -0.06326454 -0.09519002 0.08512905 0.15774235
0000e0 81 46 3d 3e 07 21 70 bd fa 83 0a 3e 23 fc a0 bd
       0.18483926 -0.058625247 0.13526908 -0.07860591
0000f0 51 04 93 bc 2c a4 c5 3c fc d9 bf 3d 92 03 17 bd
       -0.017946394 0.024126135 0.09367749 -0.03686864
000100 93 31 a0 3c 38 f1 3a bb b0 a3 5a 3d c3 27 26 bd
       0.019554889 -0.0028525125 0.05337876 -0.040565263
000110 82 8a b4 bd 2d c0 3d 3c 88 42 c6 bd 6e 18 68 3d
       -0.08815481 0.011581463 -0.096806586 0.056663923
000120 5a 1f c6 bc 3e 53 02 3e 20 ee 35 3e 80 ed 41 bc
       -0.024184871 0.12727067 0.17766619 -0.01183641
000130 b7 99 ad 3d 4b 97 7b bd 49 b8 cd bd 10 37 db bb
       0.084765844 -0.06142358 -0.10044915 -0.0066899136
000140 67 b1 92 3d e9 6f b7 bc 43 f0 be ba 54 dd 66 3b
       0.07162743 -0.02239223 -0.0014567453 0.0035227137
000150 16 20 bd 3c fb 14 06 3e ff 1b c6 3d f9 0d 5c 3d
       0.023086589 0.13093941 0.096733086 0.053724263
000160 d2 a3 98 bd 08 eb 03 be 23 bc 65 3d 08 b1 00 bd
       -0.07453121 -0.12882626 0.056087624 -0.03141883
000170 95 de f8 3d 2a 7c 70 3d 01 94 31 bd 2f 4a c4 bb
       0.12151829 0.058712162 -0.04335404 -0.0059902887
000180 ed e8 a0 bd 53 95 1e bd e4 f1 fc 3b 3b 05 9a 3d
       -0.07856927 -0.038716625 0.0077192653 0.07520529
000190 db 74 20 3a 47 d7 75 bc f6 ee a1 3d 77 97 57 3d
       0.00061209284 -0.015004939 0.07906906 0.052634683
0001a0 36 f3 b0 3d 60 16 f4 3c 37 bf 77 bd 6b 62 e6 bd
       0.08640139 0.029795825 -0.06048509 -0.112492405
0001b0 8a 99 cb bb e4 08 ac bc d1 a7 ad bd ed 73 82 bc
       -0.0062133716 -0.021000333 -0.08479274 -0.015924418
0001c0 35 03 d8 3d 6b 32 f5 bd 46 86 82 3d 9b 3e 2c 3d
       0.10547487 -0.11972507 0.06373267 0.042051893
0001d0 c6 1b 96 3c b7 4a 24 3c fa d6 48 bd d9 28 85 bc
       0.01832379 0.010027579 -0.049033143 -0.01625483
0001e0 12 ba 87 3d 87 5f 10 3c 12 1c 5a bd 49 6f 41 3d
       0.06627287 0.008811838 -0.053249426 0.04722527
0001f0 b6 f0 7d 3c c8 ed be bd 24 73 c2 bd 4c cc 89 bd
       0.0154992845 -0.09322697 -0.094946176 -0.0672842
000200 8c 07 87 bd 17 df f6 bb 16 a2 10 3d 7c 8d 89 bc
       -0.06593236 -0.0075339186 0.035310827 -0.016791098
000210 36 77 72 bd 16 cd 88 ba a1 b8 3a bd 93 e5 66 bb
       -0.05919572 -0.0010437097 -0.045586232 -0.0035232052
000220 17 93 78 bd 3f 38 9e 3d 75 ce 53 bc aa c2 b8 3c
       -0.06068715 0.07725572 -0.012927641 0.02255376
000230 ed 78 6b ba 5b 77 aa bd d1 0d 87 bd 9c b7 0b be
       -0.0008982558 -0.083235465 -0.06594432 -0.1364426
000240 4d 87 ed bc 94 aa 87 3d a1 65 29 3d 96 d4 cb 3c
       -0.02899518 0.06624332 0.041356687 0.024881642
000250 7d dd c0 bc 5f 19 a1 bd 30 91 c4 bb 30 8e 25 bc
       -0.023543114 -0.07866167 -0.005998753 -0.010104701
000260 d1 93 c9 3d dc 44 2b bc 4a 4b 9c 3d b7 c4 37 3c
       0.09842647 -0.010453429 0.07631548 0.011216334
000270 f0 b6 86 bd ca 03 20 3c be 33 08 3d 76 46 08 bd
       -0.06577861 0.009766528 0.03325247 -0.03327032
000280 86 d3 1b bd 4a 95 db bd 49 f7 ca bd a9 56 13 be
       -0.03804352 -0.10721834 -0.09910447 -0.14388527
000290 ab 4b d8 bd 47 79 c2 bd 51 ad 7e 3c ad 3a 79 bd
       -0.105613075 -0.09495788 0.015544252 -0.060846973
0002a0 8a 15 ab 3d 6d 8d de 3d 27 b8 f0 3c 7e 5a 80 bd
       0.083537176 0.108668186 0.029384686 -0.0626726
0002b0 a4 ef 14 bd eb cd 8c 3c 0b d0 c4 3c f6 79 d1 3d
       -0.03636135 0.017188033 0.024024984 0.1022834
0002c0 62 90 ee 3d ea 85 94 bd 59 9d 97 bd bc d4 0b be
       0.116486326 -0.072521046 -0.074030586 -0.1365537
0002d0 17 12 ba bd 3f 7d 20 3d 87 d0 a4 bb 86 35 35 3d
       -0.090854816 0.039181944 -0.005029741 0.044240497
0002e0 d5 b6 6c 3c 03 fe fe 3d f7 08 0d 3d c7 ef 5e bb
       0.014447887 0.12450793 0.034432378 -0.003401743
0002f0 f0 b2 68 3d 84 67 b9 bd 0a db 1d 3d 61 f1 f9 3c
       0.056811273 -0.09052947 0.03853897 0.030510606
000300 4e 94 ad bc a7 01 0a bc 04 67 8a 3d 82 09 8d 3c
       -0.021188881 -0.0084232455 0.0675793 0.017216448
000310 71 26 c6 bd a1 05 24 bd 65 15 5e 3c 02 ec e2 bd
       -0.09675301 -0.04004443 0.013554906 -0.11080171
000320 a8 75 ab bd 44 4a 98 3c dd c5 1e 3d af 6c f2 3d
       -0.083720505 0.0185901 0.038762916 0.11837136
000330 ad bf 01 be bd 81 6f 3d b0 df cb bd 4a 5f ee bc
       -0.12670775 0.058473337 -0.099547744 -0.029098172
000340 fe db 33 bc 0f 64 f1 bd 89 da 2a 3d 76 0a ca 3c
       -0.010977743 -0.11786663 0.041712318 0.024663191
000350 15 89 2d bc 97 2c b2 3d bc df d1 bd 6b 54 fc bd
       -0.010591765 0.08699911 -0.10247752 -0.12320789
000360 95 5e bf 3d 94 0d d2 3d 0b 83 2b 3e 09 a2 82 3c
       0.09344212 0.10256496 0.16749208 0.015946405
000370 13 7d 14 3e c9 ac f0 3d db 14 65 3e 55 19 05 3e
       0.14500837 0.11751706 0.22371237 0.12997945
000380 ec 5d 7c bc a0 3b 3e 3d 52 23 ed bd 48 e3 d0 3b
       -0.015403252 0.04644358 -0.115790024 0.0063747503
000390 8e dd a1 3c 8c 3b f4 3d 60 4b fa 3d 3f ba af ba
       0.019758966 0.1192542 0.12221408 -0.0013406946
0003a0 09 c1 89 3d 17 a1 c8 bd ea 9a a6 bd 73 fc 33 3c
       0.06726272 -0.097963504 -0.08135016 0.010985482
0003b0 75 03 a5 bd 13 96 2e 3d 92 a4 a2 3b 60 10 79 3d
       -0.080573 0.04262359 0.004963466 0.060806632
0003c0 fc 49 de ba b0 e0 d3 bd 70 3b 8c bc 62 a7 56 3c
       -0.0016959305 -0.1034559 -0.017118186 0.013101431
0003d0 3b b9 d0 bc c8 0e 2d bd 51 db 08 3d 74 82 b4 3d
       -0.02547895 -0.042250425 0.03341228 0.088139445
0003e0 a5 9e ba 3c d6 9f c5 bd e8 1a c8 bd e0 b4 00 be
       0.022780726 -0.09649627 -0.09770757 -0.12568998
0003f0 84 f0 87 3d 3f 8f 97 3b c4 bb 21 bc 18 b8 2d bb
       0.066376716 0.0046252306 -0.009871427 -0.0026507434

sequential_1/conv2d_3/BiasAdd/ReadVariableOp:0 f4 [64]
000000 ad 82 76 bc 0b 74 35 bd d6 f2 2e bd 2e 0b 0b 3c
       -0.015045804 -0.04430012 -0.042712055 0.008486552
000010 80 35 e6 bc 88 c4 ac ba d9 c6 cf bc e0 8f 5f bd
       -0.028101683 -0.001318113 -0.025363373 -0.05458057
000020 31 52 ab bc c7 9c a9 bc 22 fa 1b bd 68 b8 ed bb
       -0.020913215 -0.02070464 -0.038080342 -0.007254649
000030 04 e3 94 bc 20 f6 d4 bc b1 7d 49 bd 5a d2 19 bc
       -0.018174656 -0.025996268 -0.049192134 -0.009388531
000040 a4 e7 16 bb 75 3b 01 3c 9c da 18 3b 5b 8f b9 bc
       -0.0023026252 0.007887711 0.002332366 -0.022651365
000050 69 c8 19 bc ab 56 e8 3b 33 47 5c bc 5b 89 7f bc
       -0.00938616 0.0070904098 -0.01344471 -0.015596713
000060 fc 50 ae bc e0 b9 af bc 40 a6 cc bc 8a 1d b2 bc
       -0.02127885 -0.021450937 -0.024981618 -0.021742601
000070 0b f2 5c bd 17 71 3b bd fb b9 28 bc a0 e8 9c bb
       -0.053941768 -0.045762148 -0.010298247 -0.0047884732
000080 10 41 40 bd 0e da 3e bd 53 bf e5 bc f5 16 db bc
       -0.04693705 -0.046594672 -0.028045332 -0.026744345
000090 83 ec 0a bd c5 d5 0c 3c e9 1e 58 bc 4e 84 15 bd
       -0.03391696 0.0085958885 -0.013190963 -0.03650313
0000a0 55 54 49 bd 8e ff aa bc a2 a6 17 bd dc e7 2b bd
       -0.04915269 -0.020873811 -0.037024148 -0.041969165
0000b0 1d c8 80 3c 03 79 fc bb 4e a1 a9 bc d5 d2 b2 bc
       0.015720421 -0.0077048554 -0.020706799 -0.021829048
0000c0 21 32 3f bc b0 5f cf bc 5c 78 10 bd e0 a2 ad bc
       -0.0116696665 -0.025314182 -0.035271034 -0.021195829
0000d0 86 60 8a ba 06 16 30 bd 74 7d 92 bd 3b e0 0e bd
       -0.0010557331 -0.042989753 -0.071528345 -0.03488181
0000e0 4a 57 0f bd f7 1f bc bc 1d fb 35 bd 45 fb 60 3c
       -0.034995355 -0.02296446 -0.044428933 0.013731782
0000f0 21 a0 02 bd a8 ab 13 3c ac bf a3 3b e8 af 5a 3a
       -0.031890992 0.009013094 0.0049972143 0.0008342252

sequential_1/conv2d_2/Conv2D/ReadVariableOp:0 f4 [32, 1, 3, 3]
000000 8a 57 d5 3c 59 c5 11 be aa 0f a6 3d fd 20 08 3e
       0.026042718 -0.14235438 0.081084564 0.13293834
000010 79 a5 18 3e d7 70 8b 3b 29 a4 87 bd 90 5a 00 3d
       0.14906873 0.004255395 -0.06623108 0.031336367
000020 00 5c 85 bd db cb 3f 3d b4 d0 a7 bc 80 e8 7e bd
       -0.06511688 0.04682527 -0.02048526 -0.062233448
000030 b5 bd bc 3d 19 97 44 bd ec 1a 2b be 85 1d 03 3e
       0.09215871 -0.04799566 -0.16709489 0.1280423
000040 29 97 25 3e 15 62 33 3e 5f 43 2b be e6 cf b1 3d
       0.16170944 0.17517884 -0.16724919 0.086822316
000050 aa 0f 39 3e b4 54 43 3d 03 7c b9 3d b5 d5 40 3e
       0.18072382 0.0476882 0.090568565 0.18831523
000060 10 c4 93 3d 44 12 e1 3d 83 8c f3 3d 4f d1 49 be
       0.0721513 0.10989812 0.11892035 -0.19708751
000070 08 59 71 3d 21 21 99 3c 7d 4e c8 3d c9 b3 a8 3d
       0.058922797 0.018692555 0.097805955 0.08237416
000080 45 46 71 3d ba 04 1d 3e fb 03 9d 3c 90 a3 cc bd
       0.058904905 0.15333834 0.019166937 -0.099921346
000090 1a 16 ca bd c8 5e d2 bd b0 06 03 3e a3 af 1f 3e
       -0.09867497 -0.10271984 0.1279552 0.15594344
0000a0 60 74 40 3e 14 36 db 3d f6 4f 60 3d a4 45 81 bd
       0.18794394 0.10703674 0.054763757 -0.06312111
0000b0 d3 db a2 bd 78 0d 55 be a6 76 51 bc 54 b1 e0 3d
       -0.079520844 -0.20805919 -0.012784636 0.10971323
0000c0 d4 49 7c bc d9 0c 15 be cb 4d 3d 3e 68 a4 ac bd
       -0.015398461 -0.14555682 0.18486707 -0.084297955
0000d0 a6 7b be bc a2 3a a8 3d 24 2b 43 bd 0d d7 8b be
       -0.02325232 0.08214308 -0.047648564 -0.27312508
0000e0 dc 44 82 be e7 6f 68 bd 64 99 a5 3b 22 29 78 3d
       -0.2544316 -0.056747343 0.005053686 0.060586102
0000f0 bc be 1f 3e 26 60 61 3e eb 8b 16 3e 1b 9a 54 be
       0.15600103 0.22009334 0.14701812 -0.20761912
000100 2b 16 a1 bd 68 73 27 3e 73 e3 45 be 1b 37 a5 bd
       -0.07865556 0.16352618 -0.19325046 -0.08067151
000110 c2 e9 3b 3e 68 5f aa 3d 3a b4 9d 3d 09 95 02 3e
       0.1835089 0.083189785 0.07700391 0.12752165
000120 2a d6 a2 be d0 70 6a be f6 0d 28 bd bf 75 e5 3b
       -0.3180402 -0.22894597 -0.04102894 0.007002562
000130 d8 d1 cf 3d 83 75 88 3d 8c 4b 1a 3e 5b 67 fd 3d
       0.101474464 0.066630386 0.15067881 0.12373229
000140 92 e1 ee 3d 6c 21 d7 3d 28 a1 ca 3d 03 07 e9 3d
       0.11664118 0.105044216 0.09894019 0.113782905
000150 4b a4 cd bb 3a 3a ad bb dd 5b 5c 3e af e8 69 be
       -0.0062756888 -0.005286482 0.21519418 -0.22842668
000160 d2 8a 7b be a1 f5 43 bd bc 24 4f 3d 11 6c 06 be
       -0.24564674 -0.04784167 0.050572142 -0.13127162
000170 34 e1 00 bd 05 da 46 bc d4 ac a0 3d fb 7d e0 3d
       -0.03146477 -0.012136941 0.07845464 0.10961529
000180 46 bd 2a 3e f1 0e f9 3d 80 09 da bc c8 ef b6 3d
       0.16673765 0.12161053 -0.026615858 0.089324534
000190 29 03 c6 3c 70 cb 20 3e ba 72 02 3e 19 fa 31 3e
       0.024171429 0.15702605 0.12739077 0.17380561
0001a0 c0 ee bf bb 77 59 ad bd 7d b4 b4 3d e1 11 ce bc
       -0.0058573186 -0.0846433 0.08823488 -0.02515501
0001b0 62 40 4a be b4 00 ae 3d 41 f0 af 3d 1d 42 15 be
       -0.19751123 0.08496228 0.08590747 -0.14576001
0001c0 b6 f3 e7 3d 96 f0 50 3d 5a e6 89 be bd de 84 bd
       0.11325781 0.05101069 -0.26933557 -0.064877965
0001d0 75 5c 63 3e 81 ff a5 bd 93 84 9f 3d 41 9a 30 be
       0.22203238 -0.08105374 0.077889584 -0.17246343
0001e0 13 f7 1a 3e dd bc f7 3d 06 e3 f7 3c 8b 7f 9d 3d
       0.15133314 0.1209657 0.03025962 0.076903425
0001f0 30 7a ea bc 43 16 21 3e ab 95 68 bc dc b3 3e 3e
       -0.028622717 0.15731148 -0.01419584 0.18623298
000200 a2 e4 67 3e b7 70 2d be 62 b8 04 be 2c 9d 4c 3e
       0.2264581 -0.16937529 -0.12960961 0.19981831
000210 6d e8 10 be 85 cd 61 be db 7c e7 3c 3a a0 29 3e
       -0.14151163 -0.22051056 0.028257778 0.16565028
000220 49 43 ac 3d de 85 c5 bc 3b 28 ea 3d 7b 9c 39 3e
       0.08411271 -0.024111684 0.114334546 0.18126099
000230 a5 1d 8d ba 88 3a 8d bd b0 43 40 3e a2 46 bc bd
       -0.0010766281 -0.068959296 0.1877582 -0.0919316
000240 55 78 0a 3d 03 58 22 be 10 fd 78 be ec 3e d6 bd
       0.033806164 -0.15853886 -0.24315286 -0.1046122
000250 95 dc 85 be 34 dd 0b 3e 78 7c 59 be cb 3b 72 3c
       -0.26144853 0.13658601 -0.21238887 0.014784764
000260 d0 9d da 3d 38 3e 1d 3e 24 13 93 3d 07 5d 94 3c
       0.106746316 0.15355766 0.07181385 0.018110765
000270 8a 57 25 3d 0e 4c 71 bd 0c 7c 0a 3e 39 e2 bc bd
       0.040366687 -0.058910422 0.13523883 -0.09222836
000280 c8 60 ad 3d 36 cc 02 3e de 82 1f be 5d 95 8c 3d
       0.08465725 0.12773213 -0.15577266 0.06864426
000290 07 a2 e4 3d 2b 8e 89 be 05 69 94 bd 22 9d 30 3e
       0.11163717 -0.26866278 -0.072465934 0.17247441
0002a0 df ce aa bd 90 03 91 be 36 75 7f be 16 21 07 3e
       -0.08340239 -0.2832303 -0.24947056 0.13196215
0002b0 30 56 5d 3d cb 05 50 3e 54 a4 d3 3d 2b c4 02 bd
       0.054037273 0.2031471 0.103340775 -0.03192536
0002c0 e5 b8 01 3e fd 31 8f bd 6a c4 f6 bd 27 90 69 be
       0.12668188 -0.069919564 -0.12049182 -0.22808896
0002d0 48 29 4e 3e df 5f 24 3e 82 cb 86 3d 3d 11 1d 3e
       0.20132935 0.16052197 0.06581785 0.15338607
0002e0 6d 33 30 bc 98 01 fe 3d b4 48 a0 be 8e 24 4f be
       -0.010754448 0.12402648 -0.31305468 -0.20228788
0002f0 92 b8 81 be 70 92 b8 bd c7 ec a3 3d 48 2c 21 3e
       -0.25336128 -0.09012306 0.08004146 0.15739548
000300 1e 9d b7 bd 9c cb 48 3e 4a a4 dd 3d ce 71 41 be
       -0.089655146 0.19608921 0.10822351 -0.1889107
000310 22 e5 c4 bd d2 3e 42 3e 98 21 8d 3d 31 b2 32 3e
       -0.09614016 0.18969277 0.06891173 0.17450787
000320 f3 3a 01 3e fa 67 02 3e 05 46 28 3d 7d 35 82 3d
       0.12620144 0.12734976 0.0410824 0.06357858
000330 12 b4 31 be 91 7d 77 be ea 00 60 be 5c 49 35 3e
       -0.17353848 -0.24168994 -0.21875349 0.17703766
000340 83 89 9d 3c 84 dd 16 be 32 aa 50 3e e6 58 47 3d
       0.01923061 -0.14732939 0.20377424 0.048668765
000350 28 05 93 be b8 80 55 3e 4b 62 04 bd 9e 18 58 be
       -0.2871487 0.20849884 -0.032320302 -0.2110314
000360 fe cd ed bb 0e 1e f8 bd 13 cb 6b 3e 6d 15 82 bd
       -0.007257222 -0.121151075 0.23026685 -0.06351743
000370 e0 9f 9c be a8 ab 22 be 8a 0d 87 3e 05 43 e8 3d
       -0.30590725 -0.15885794 0.26377517 0.11340908
000380 c4 9d 94 bd a4 97 ab 3d 1a 39 60 3e 0b 45 20 3e
       -0.07256654 0.083785325 0.21896783 0.15651338
000390 d7 1c 20 be b7 7b 03 be 98 ce 23 3e 43 2d 4a be
       -0.15636002 -0.12840162 0.15996778 -0.19743828
0003a0 c8 e7 77 bd 0d af 39 bd 94 30 b6 bc 84 9f 87 3d
       -0.06052378 -0.045332957 -0.02223996 0.06622222
0003b0 e1 cf 7f 3d 86 5a 05 3e 22 e7 1f bd da d8 37 3e
       0.06245411 0.13022813 -0.039038785 0.17953816
0003c0 1c 24 69 be 9a 1e 4e be 82 ed 9a 3d 70 84 0c 3e
       -0.22767681 -0.20128861 0.07564832 0.13722396
0003d0 06 fa b4 3d d1 e3 e6 bc 50 65 a2 3d a6 22 e9 3d
       0.08836751 -0.028184803 0.0792948 0.11383562
0003e0 bd 5e ba bd 70 0f 0b 3d 7c bc bd 3b e2 6f 90 be
       -0.09100101 0.03395027 0.0057902914 -0.2821036
0003f0 bf c4 1c 3e d6 24 fc 3d ee bf 0e bd a9 30 45 3e
       0.15309428 0.123117134 -0.034851007 0.19256844

sequential_1/conv2d_2/BiasAdd/ReadVariableOp:0 f4 [32]
000000 d3 7b 51 bd 59 82 32 bd d3 95 fe bc ab 60 f4 bc
       -0.05114348 -0.04358134 -0.031077301 -0.029831251
000010 f0 5e 5f bd 47 e4 ea bb d3 00 c3 3c cc 19 d7 bc
       -0.0545339 -0.007168326 0.023804104 -0.026257418
000020 26 cc e5 3b 2a 4c e9 bb 88 91 33 bd 74 f3 52 bd
       0.007012862 -0.007119675 -0.04383996 -0.051501706
000030 f4 a2 cb 3b e1 06 b2 bc ea bd af bc 32 cb 24 bd
       0.006214494 -0.021731796 -0.021452863 -0.040232845
000040 f8 26 e0 3d 24 34 82 bd 1f 73 ad 3d b5 b8 e7 bb
       0.10944933 -0.06357601 0.08469223 -0.0070715793
000050 17 d6 1d 3d 0c 5b 15 bd 91 ae f5 3b 5a 3e 69 3c
       0.03853425 -0.036463782 0.0074976166 0.014236057
000060 58 54 1a bb 95 b4 8a bc 9d d1 16 bd 8e 5a 1e bc
       -0.0023548808 -0.016931811 -0.036820997 -0.009665145
000070 ab 36 7f bd b5 8e 55 bc 76 55 7e bc 24 1d 1d bc
       -0.062307995 -0.013034512 -0.015523305 -0.009589467
