Lab_11_Tensor/quantized_model.tflite (tflite, 16896 bytes, 6 tensors)

sequential/dense/BiasAdd/ReadVariableOp f4 [10]
000000 e5 6c 6f 3c 66 42 5c 3d ba 9b b0 3b 5d d9 0d bd
       0.014613365 0.05377426 0.005389658 -0.034631122
000010 e2 76 df bc d9 37 04 3b 4e 4e fe 3b 9c 3c b0 3a
       -0.027278367 0.002017489 0.0077607995 0.0013445797
000020 76 b9 10 bc d6 7f 69 3a
       -0.00883328 0.00089072937

sequential/conv2d/BiasAdd/ReadVariableOp f4 [16]
000000 24 25 64 3c 1e ad 16 3b 1c 5b 1b bc 55 e7 45 3b
       0.013924871 0.002299137 -0.009482171 0.00301977
000010 19 58 94 3d 17 81 d0 bc 84 55 ab 3d a5 ec 1b bc
       0.07243366 -0.02545218 0.0836592 -0.00951687
000020 95 be 75 3b 78 80 40 3c 21 82 2d bc 35 0d 82 bc
       0.003749763 0.011749379 -0.010590107 -0.015875438
000030 ef 91 00 3e 22 ae 41 bc b6 62 46 3b 1d 92 d4 bb
       0.12555669 -0.011821302 0.0030271239 -0.0064871446

sequential/conv2d_1/BiasAdd/ReadVariableOp f4 [32]
000000 fc 0f b3 bc 33 72 81 bd 71 c7 62 bd 71 ae 0d bd
       -0.021858208 -0.0632061 -0.055365983 -0.03459019
000010 45 fd 4b bd 3f fd 57 bd 4a f7 1a bd 11 b0 46 bd
       -0.049802084 -0.05273175 -0.03783349 -0.048507754
000020 eb 25 0b be 32 bf 2d bd 45 6a 8c bc cf b3 68 3c
       -0.13588683 -0.042418666 -0.017140517 0.014203026
000030 8a df 8c bc e7 23 af bd d7 6f 87 bd 4f c4 7f bd
       -0.017196435 -0.0855177 -0.06613129 -0.062443074
000040 a7 f0 01 3d b5 85 cf 3c 35 b9 ec bd 71 fa 94 3c
       0.031723645 0.025332311 -0.11558763 0.018185826
000050 c5 c5 03 bc 0e c9 fb bb fe 92 20 be 7f 15 b7 bc
       -0.008042757 -0.0076838797 -0.15681073 -0.022349117
000060 64 f0 9c 3d b3 1e 68 bd f5 65 ff bb 72 49 39 bd
       0.076630384 -0.056669902 -0.0077941366 -0.04523606
000070 88 8a 53 3b 2a d5 bd 3c b8 c5 2c bd 49 26 67 bd
       0.0032278616 0.023172934 -0.042180747 -0.056432996

sequential/conv2d/Conv2D f4 [16, 3, 3, 1]
000000 d2 8f 8c 3e 07 f0 37 3e bd 60 41 3e c6 6a c2 3e
       0.27453476 0.17962657 0.18884559 0.37972087
000010 6b 8d ae bd 3c c8 bc 3d 19 02 7f bd b8 da a1 be
       -0.08523067 0.09217879 -0.06225786 -0.31612182
000020 8d 3d 95 be 1b 01 e9 be 0c 6e 33 be 74 b8 3e 3e
       -0.29148522 -0.45508656 -0.17522448 0.18625051
000030 66 49 c0 bd f3 e4 31 3e 89 1f c4 3e 16 7b 15 3e
       -0.09389 0.17372493 0.3830531 0.14597735
000040 8e ac 4a 3e b6 51 c6 3e 30 aa ac 3e 7b dc 86 3e
       0.19792387 0.38734215 0.33723593 0.26340088
000050 3f 37 0b be 28 cf 9b 3e dd a7 7d 3e dd 50 1a be
       -0.13595293 0.30431485 0.24771066 -0.1506991
000060 f9 29 3c bd d2 f2 5a 3e 12 77 6e be e6 8e 83 bd
       -0.045938466 0.21381691 -0.23287609 -0.0642374
000070 50 b1 c5 3e 2e 5c 0a 3d 7f 9c 81 3c 41 31 c5 3e
       0.3861184 0.033779316 0.015821693 0.3851414
000080 bb b5 25 3e 97 db ab 3b b9 43 b3 3e a8 c7 10 3d
       0.16182606 0.005244683 0.35012606 0.035346657
000090 3a 4c bc 3e 79 93 7e 3e 38 48 63 3e 6e 0a 67 bd
       0.36776906 0.24860944 0.22195518 -0.05640643
0000a0 61 3f 08 3e 58 cb f2 3c c0 5a 35 be 0e 2b f8 be
       0.13305427 0.029637977 -0.177104 -0.48470348
0000b0 35 49 bb be 77 a1 49 3c 5d e9 a1 bd 5a 8b a3 3d
       -0.3657929 0.012306563 -0.07905839 0.079855636
0000c0 75 c6 86 3e aa 58 4a 3e 76 d0 ac bd 27 57 de bd
       0.26323286 0.19760385 -0.08438198 -0.10856467
0000d0 0c b7 b5 3e 46 24 87 3e 18 42 33 3e d0 c9 73 3e
       0.35491216 0.26394862 0.17505682 0.23807454
0000e0 ba bd de 3e 00 9d e0 3b 93 f3 8f 3d 0f df e2 3d
       0.43504125 0.0068546534 0.0702888 0.11077701
0000f0 44 25 f7 be b3 3d d3 be 64 bb 85 be 02 7f 09 3b
       -0.4827062 -0.4125801 -0.2611953 0.0020980244
000100 79 c9 c1 be 89 35 07 bf ab ae 06 3e 17 50 a9 bd
       -0.37849024 -0.52816063 0.13152568 -0.08267229
000110 b6 30 27 be e7 b1 e0 3e e9 3f da 3e 5d 1f 7b 3e
       -0.16327175 0.4388573 0.42626885 0.24523683
000120 c3 d1 fc 3e 6e 6a 47 3d e8 a0 4d be 90 e3 f0 3d
       0.49378785 0.048685484 -0.20080912 0.11762154
000130 e1 11 90 be 1d aa c2 3c f7 04 99 bd b8 ba b9 be
       -0.2813864 0.023762757 -0.0747165 -0.36275268
000140 80 34 28 3e 6d 16 6a 3e 8a 3c 40 3e c8 8b e5 3e
       0.16426277 0.22860117 0.18773094 0.44833207
000150 fc 89 10 be 79 58 9f bd 59 3c 7d 3d 56 7a ac be
       -0.14115137 -0.07780547 0.06182513 -0.33687085
000160 bd 33 d5 be 2a 8a 73 3a 86 f4 cd 3e b1 1d 28 be
       -0.41641036 0.00092903024 0.4022562 -0.16417576
000170 e4 46 0b bf 3f b4 a4 3d 73 90 8f 3e 7d 1a 87 3c
       -0.54405046 0.08042192 0.28039894 0.016492123
000180 98 b7 3b 3d 04 f9 89 3e ce d9 ad 3d a5 f7 4d 3e
       0.045829386 0.26947796 0.084888086 0.20114
000190 d6 df e8 3d d5 1e 2f 3e fa 79 62 3e 1c 55 37 3e
       0.11370818 0.17101605 0.22116843 0.1790356
0001a0 a9 16 c7 3d 0a 7f b0 bd 52 39 bb 3d e9 47 8d 3e
       0.09721119 -0.08617981 0.09141792 0.27593926
0001b0 30 07 01 be 2d 4a 02 bf e8 fb 9c be 98 b6 e1 be
       -0.12600398 -0.50894433 -0.3066094 -0.4408462
0001c0 b9 57 e7 bd ab 16 13 3e 09 c7 57 be 65 fa f0 3d
       -0.11296029 0.14364116 -0.2107202 0.11766509
0001d0 72 67 f4 3e 97 33 c3 3c 3a fc 13 be a7 c2 d6 3d
       0.47735173 0.02382831 -0.14451686 0.10486346
0001e0 92 5a 94 bd a4 87 9b 3e 22 94 8a 3e 6b 1f 1a 3e
       -0.072438374 0.30376923 0.2706614 0.15051048
0001f0 44 b9 be 3e b3 40 12 3e 84 a7 fd bd 32 fc 19 3e
       0.3725072 0.14282493 -0.12385467 0.15037611
000200 ce c2 b6 3e 86 9d ba bd d7 07 a3 3e 11 77 e1 3e
       0.356955 -0.091120765 0.3184192 0.44036153
000210 79 c3 d0 3d 3c 24 e2 3d d7 bc 9b bd 99 08 27 3e
       0.101935335 0.110420674 -0.07604378 0.16311873
000220 9e 06 68 3e 6d a2 89 bd 31 51 89 bd cd b0 67 3e
       0.22658774 -0.067204334 -0.06704939 0.22626038
000230 5a 6e ac 3e 9c 95 49 be 6f 69 72 3e e6 78 34 3e
       0.33677942 -0.19685978 0.23673032 0.17624244

sequential/conv2d_1/Conv2D i1 [32, 3, 3, 16]
000000 fd 10 f2 30 81 07 f0 00 f3 08 e1 28 35 36 1d e6
       -3 16 -14 48 -127 7 -16 0 -13 8 -31 40 53 54 29 -26
000010 eb e0 42 04 12 d6 fc 02 41 17 0e e5 9b e2 27 13
       -21 -32 66 4 18 -42 -4 2 65 23 14 -27 -101 -30 39 19
000020 fa f7 0c c2 19 e6 db e5 46 30 23 cc 1f d0 d5 b4
       -6 -9 12 -62 25 -26 -37 -27 70 48 35 -52 31 -48 -43 -76
000030 ce 1a 11 43 d5 0b 92 df de f3 f6 3a 0f 30 21 2b
       -50 26 17 67 -43 11 -110 -33 -34 -13 -10 58 15 48 33 43
000040 fd c2 32 e7 d7 db b3 32 0b b7 00 e4 d3 c5 e1 c1
       -3 -62 50 -25 -41 -37 -77 50 11 -73 0 -28 -45 -59 -31 -63
000050 ce c5 d2 ca e5 d6 0f 02 e9 10 db ad d4 d0 d0 b0
       -50 -59 -46 -54 -27 -42 15 2 -23 16 -37 -83 -44 -48 -48 -80
000060 00 35 2d 1b a7 06 cd 46 0d e0 23 fc dd f8 18 56
       0 53 45 27 -89 6 -51 70 13 -32 35 -4 -35 -8 24 86
000070 22 0f 4d 24 fd 3b d6 49 eb 1f 47 05 e1 43 e6 2d
       34 15 77 36 -3 59 -42 73 -21 31 71 5 -31 67 -26 45
000080 1a 2b ea 1e 37 2c 0b 57 07 0f 03 00 dc e9 ef f6
       26 43 -22 30 55 44 11 87 7 15 3 0 -36 -23 -17 -10
000090 f3 db ec f1 13 e3 f0 1e 0b 08 07 c8 bc e5 dc e3
       -13 -37 -20 -15 19 -29 -16 30 11 8 7 -56 -68 -27 -36 -29
0000a0 d5 ec e0 bf f7 e4 2b f9 fc f5 f4 e8 d4 e9 9d bd
       -43 -20 -32 -65 -9 -28 43 -7 -4 -11 -12 -24 -44 -23 -99 -67
0000b0 d9 ab de 9f e2 a1 4e 05 da 10 d1 bb b1 95 c3 b1
       -39 -85 -34 -97 -30 -95 78 5 -38 16 -47 -69 -79 -107 -61 -79
0000c0 16 f4 19 ff 26 18 e5 38 09 ec 31 f0 e3 09 da e5
       22 -12 25 -1 38 24 -27 56 9 -20 49 -16 -29 9 -38 -27
0000d0 ee e8 03 1c dd 30 d2 53 d4 13 f6 e7 ef fd 05 f5
       -18 -24 3 28 -35 48 -46 83 -44 19 -10 -25 -17 -3 5 -11
0000e0 fb 0f eb f4 af 2c dd 7e f6 c7 61 12 33 0e e0 00
       -5 15 -21 -12 -81 44 -35 126 -10 -57 97 18 51 14 -32 0
0000f0 12 15 41 1a 19 4e 3e 7f 66 0d 5d 38 f7 23 09 37
       18 21 65 26 25 78 62 127 102 13 93 56 -9 35 9 55

sequential/dense/MatMul i1 [10, 800] scale=0.004050782 zero_point=0
000000 e1 fa e9 f9 18 09 0d fc 00 ea dc 0a 09 e6 e1 d4
       -0.12557425 -0.024304692 -0.09316798 -0.028355474 0.09721877 0.03645704 0.052660167 -0.016203128 0.0 -0.0891172 -0.14582816 0.04050782 0.03645704 -0.105320334 -0.12557425 -0.1782344
000010 fb 1e f1 f6 fa 06 01 fe 16 f0 f1 db d1 04 eb 08
       -0.02025391 0.121523455 -0.060761727 -0.04050782 -0.024304692 0.024304692 0.004050782 -0.008101564 0.0891172 -0.06481251 -0.060761727 -0.14987893 -0.19038676 0.016203128 -0.08506642 0.032406256
000020 fd 04 eb f2 e3 18 fb eb f6 03 d4 ee ef fb f2 f4
       -0.012152346 0.016203128 -0.08506642 -0.056710947 -0.11747268 0.09721877 -0.02025391 -0.08506642 -0.04050782 0.012152346 -0.1782344 -0.07291408 -0.068863295 -0.02025391 -0.056710947 -0.048609383
000030 e1 e5 f9 cb e2 0d 03 ed fc fa e1 c6 e5 e7 ef f7
       -0.12557425 -0.10937111 -0.028355474 -0.21469145 -0.121523455 0.052660167 0.012152346 -0.076964855 -0.016203128 -0.024304692 -0.12557425 -0.23494536 -0.10937111 -0.10126955 -0.068863295 -0.03645704
000040 f3 e9 06 03 f6 fb 08 f5 06 00 04 07 f4 03 0d f9
       -0.052660167 -0.09316798 0.024304692 0.012152346 -0.04050782 -0.02025391 0.032406256 -0.0445586 0.024304692 0.0 0.016203128 0.028355474 -0.048609383 0.012152346 0.052660167 -0.028355474
000050 fc 0f f1 df e8 0a 1c ef 08 0f e8 eb ef de fc f9
       -0.016203128 0.060761727 -0.060761727 -0.1336758 -0.09721877 0.04050782 0.113421895 -0.068863295 0.032406256 0.060761727 -0.09721877 -0.08506642 -0.068863295 -0.13772659 -0.016203128 -0.028355474
000060 12 18 f7 e0 eb fd 10 04 07 08 1b ea 02 14 ed 0a
       0.07291408 0.09721877 -0.03645704 -0.12962502 -0.08506642 -0.012152346 0.06481251 0.016203128 0.028355474 0.032406256 0.10937111 -0.0891172 0.008101564 0.08101564 -0.076964855 0.04050782
000070 fc fc fa e2 fc 1a 0e 12 09 20 14 f3 f7 ce 0d 0b
       -0.016203128 -0.016203128 -0.024304692 -0.121523455 -0.016203128 0.105320334 0.056710947 0.07291408 0.03645704 0.12962502 0.08101564 -0.052660167 -0.03645704 -0.2025391 0.052660167 0.0445586
000080 01 05 0d e9 e6 10 f6 ea d1 0b f7 e9 f8 12 fc f4
       0.004050782 0.02025391 0.052660167 -0.09316798 -0.105320334 0.06481251 -0.04050782 -0.0891172 -0.19038676 0.0445586 -0.03645704 -0.09316798 -0.032406256 0.07291408 -0.016203128 -0.048609383
000090 f6 04 08 e9 ef 0d 0e f3 08 09 e9 e8 06 b8 fe fc
       -0.04050782 0.016203128 0.032406256 -0.09316798 -0.068863295 0.052660167 0.056710947 -0.052660167 0.032406256 0.03645704 -0.09316798 -0.09721877 0.024304692 -0.29165632 -0.008101564 -0.016203128
0000a0 fc 0b 07 e7 05 f7 f6 fc ff f9 01 e9 0e f6 f8 f1
       -0.016203128 0.0445586 0.028355474 -0.10126955 0.02025391 -0.03645704 -0.04050782 -0.016203128 -0.004050782 -0.028355474 0.004050782 -0.09316798 0.056710947 -0.04050782 -0.032406256 -0.060761727
0000b0 db ec fb e5 df f6 0b f4 ff c5 fe e0 d1 02 e5 01
       -0.14987893 -0.08101564 -0.02025391 -0.10937111 -0.1336758 -0.04050782 0.0445586 -0.048609383 -0.004050782 -0.23899613 -0.008101564 -0.12962502 -0.19038676 0.008101564 -0.10937111 0.004050782
0000c0 0c fd fe f9 09 0d f5 e6 fd f8 f2 f2 fc f8 e7 ef
       0.048609383 -0.012152346 -0.008101564 -0.028355474 0.03645704 0.052660167 -0.0445586 -0.105320334 -0.012152346 -0.032406256 -0.056710947 -0.056710947 -0.016203128 -0.032406256 -0.10126955 -0.068863295
0000d0 ec d9 03 f5 f9 11 ff ec 14 01 f9 ee 05 0d ed fe
       -0.08101564 -0.1579805 0.012152346 -0.0445586 -0.028355474 0.068863295 -0.004050782 -0.08101564 0.08101564 0.004050782 -0.028355474 -0.07291408 0.02025391 0.052660167 -0.076964855 -0.008101564
0000e0 eb 05 1d ef e5 19 0e 0b d9 0e 03 e1 f3 ef 0d f0
       -0.08506642 0.02025391 0.11747268 -0.068863295 -0.10937111 0.10126955 0.056710947 0.0445586 -0.1579805 0.056710947 0.012152346 -0.12557425 -0.052660167 -0.068863295 0.052660167 -0.06481251
0000f0 ea 13 04 10 ec f4 08 01 21 08 0d f5 f2 e6 07 08
       -0.0891172 0.076964855 0.016203128 0.06481251 -0.08101564 -0.048609383 0.032406256 0.004050782 0.1336758 0.032406256 0.052660167 -0.0445586 -0.056710947 -0.105320334 0.028355474 0.032406256
